…
Namespace(augment=True, batch_size=128, cpu=False, data_set='cifar10', description='Kernel_Compression_Test_1_Weight_Norms_Tensorly_PAckahe', epochs=310, layer=3, lr=0.002, model='AlexNet', momentum=0.1, name='exp1_kernel', nesterov=False, print_freq=10, rank=448, resume='./runs/exp1/checkpoint.pth.tar', seed=1, start_epoch=0, tensorboard=True, weight_decay=0.0)
Tensorboard:  True
Files already downloaded and verified
Number of model parameters: 23238474
=> loading checkpoint './runs/exp1/checkpoint.pth.tar'
=> loaded checkpoint './runs/exp1/checkpoint.pth.tar' (epoch 300)

Before replacement: 
AlexNet(
  (features): Sequential(
    (0): Conv2d(3, 64, kernel_size=(3, 3), stride=(1, 1), padding=(2, 2))
    (1): ReLU(inplace=True)
    (2): MaxPool2d(kernel_size=2, stride=2, padding=0, dilation=1, ceil_mode=False)
    (3): Conv2d(64, 192, kernel_size=(3, 3), stride=(1, 1), padding=(1, 1))
    (4): ReLU(inplace=True)
    (5): MaxPool2d(kernel_size=2, stride=2, padding=0, dilation=1, ceil_mode=False)
    (6): Conv2d(192, 384, kernel_size=(3, 3), stride=(1, 1), padding=(1, 1))
    (7): ReLU(inplace=True)
    (8): Conv2d(384, 256, kernel_size=(3, 3), stride=(1, 1), padding=(1, 1))
    (9): ReLU(inplace=True)
    (10): Conv2d(256, 256, kernel_size=(3, 3), stride=(1, 1), padding=(1, 1))
    (11): ReLU(inplace=True)
    (12): MaxPool2d(kernel_size=2, stride=2, padding=0, dilation=1, ceil_mode=False)
  )
  (classifier): Sequential(
    (0): Dropout(p=0.5, inplace=False)
    (1): Linear(in_features=4096, out_features=4096, bias=True)
    (2): ReLU(inplace=True)
    (3): Dropout(p=0.5, inplace=False)
    (4): Linear(in_features=4096, out_features=1024, bias=True)
    (5): ReLU(inplace=True)
    (6): Linear(in_features=1024, out_features=10, bias=True)
  )
)


Rank is :  448
Computing the factors of the weight tensor
Factors calculated in  70.66267824172974  seconds
torch.Size([192, 448]) torch.Size([64, 448]) torch.Size([3, 448]) torch.Size([3, 448])
Layer shape: 
torch.Size([64, 448, 1, 1]) torch.Size([448, 1, 1, 3]) torch.Size([1, 448, 3, 1]) torch.Size([448, 192, 1, 1])
Input shape: 
torch.Size([448, 64, 1, 1]) torch.Size([1, 448, 1, 3]) torch.Size([448, 1, 3, 1]) torch.Size([192, 448, 1, 1])

After replacement: 
AlexNet(
  (features): Sequential(
    (0): Conv2d(3, 64, kernel_size=(3, 3), stride=(1, 1), padding=(2, 2))
    (1): ReLU(inplace=True)
    (2): MaxPool2d(kernel_size=2, stride=2, padding=0, dilation=1, ceil_mode=False)
    (3): Sequential(
      (K_s): Conv2d(64, 448, kernel_size=(1, 1), stride=(1, 1))
      (K_y): Conv2d(448, 1, kernel_size=(1, 3), stride=(1, 1))
      (K_x): Conv2d(1, 448, kernel_size=(3, 1), stride=(1, 1))
      (K_t): Conv2d(448, 192, kernel_size=(1, 1), stride=(1, 1), padding=(1, 1))
    )
    (4): ReLU(inplace=True)
    (5): MaxPool2d(kernel_size=2, stride=2, padding=0, dilation=1, ceil_mode=False)
    (6): Conv2d(192, 384, kernel_size=(3, 3), stride=(1, 1), padding=(1, 1))
    (7): ReLU(inplace=True)
    (8): Conv2d(384, 256, kernel_size=(3, 3), stride=(1, 1), padding=(1, 1))
    (9): ReLU(inplace=True)
    (10): Conv2d(256, 256, kernel_size=(3, 3), stride=(1, 1), padding=(1, 1))
    (11): ReLU(inplace=True)
    (12): MaxPool2d(kernel_size=2, stride=2, padding=0, dilation=1, ceil_mode=False)
  )
  (classifier): Sequential(
    (0): Dropout(p=0.5, inplace=False)
    (1): Linear(in_features=4096, out_features=4096, bias=True)
    (2): ReLU(inplace=True)
    (3): Dropout(p=0.5, inplace=False)
    (4): Linear(in_features=4096, out_features=1024, bias=True)
    (5): ReLU(inplace=True)
    (6): Linear(in_features=1024, out_features=10, bias=True)
  )
)

Learning rate:  0.002
using : SGD (
Parameter Group 0
    dampening: 0
    lr: 0.002
    momentum: 0.1
    nesterov: False
    weight_decay: 0.0
)
Afer optim
Epoch:  300
Epoch: [300][0/391]	Time 0.588 (0.588)	Loss 104.0334 (104.0334)	Prec@1 12.500 (12.500)
Epoch: [300][10/391]	Time 0.026 (0.073)	Loss 8.4894 (75.8598)	Prec@1 6.250 (10.156)
Epoch: [300][20/391]	Time 0.025 (0.051)	Loss 5.0623 (43.3478)	Prec@1 10.938 (9.821)
…
