…

Namespace(augment=True, batch_size=128, cpu=False, data_set='cifar10', description='None', epochs=320, layer=3, lr=0.001, model='AlexNet', momentum=0.1, name='exp1_kernel', nesterov=False, print_freq=10, rank=140, resume='./runs/exp1/checkpoint.pth.tar', seed=1, start_epoch=0, tensorboard=True, weight_decay=0.0)
Tensorboard:  True
Files already downloaded and verified
Number of model parameters before: 23238474
=> loading checkpoint './runs/exp1/checkpoint.pth.tar'
=> loaded checkpoint './runs/exp1/checkpoint.pth.tar' (epoch 300)

Before replacement: 
AlexNet(
  (features): Sequential(
    (0): Conv2d(3, 64, kernel_size=(3, 3), stride=(1, 1), padding=(2, 2))
    (1): ReLU(inplace=True)
    (2): MaxPool2d(kernel_size=2, stride=2, padding=0, dilation=1, ceil_mode=False)
    (3): Conv2d(64, 192, kernel_size=(3, 3), stride=(1, 1), padding=(1, 1))
    (4): ReLU(inplace=True)
    (5): MaxPool2d(kernel_size=2, stride=2, padding=0, dilation=1, ceil_mode=False)
    (6): Conv2d(192, 384, kernel_size=(3, 3), stride=(1, 1), padding=(1, 1))
    (7): ReLU(inplace=True)
    (8): Conv2d(384, 256, kernel_size=(3, 3), stride=(1, 1), padding=(1, 1))
    (9): ReLU(inplace=True)
    (10): Conv2d(256, 256, kernel_size=(3, 3), stride=(1, 1), padding=(1, 1))
    (11): ReLU(inplace=True)
    (12): MaxPool2d(kernel_size=2, stride=2, padding=0, dilation=1, ceil_mode=False)
  )
  (classifier): Sequential(
    (0): Dropout(p=0.5, inplace=False)
    (1): Linear(in_features=4096, out_features=4096, bias=True)
    (2): ReLU(inplace=True)
    (3): Dropout(p=0.5, inplace=False)
    (4): Linear(in_features=4096, out_features=1024, bias=True)
    (5): ReLU(inplace=True)
    (6): Linear(in_features=1024, out_features=10, bias=True)
  )
)


After replacement: 
AlexNet(
  (features): Sequential(
    (0): Conv2d(3, 64, kernel_size=(3, 3), stride=(1, 1), padding=(2, 2))
    (1): ReLU(inplace=True)
    (2): MaxPool2d(kernel_size=2, stride=2, padding=0, dilation=1, ceil_mode=False)
    (3): Conv2d(64, 140, kernel_size=(1, 1), stride=(1, 1), bias=False)
    (4): Conv2d(140, 140, kernel_size=(3, 3), stride=(1, 1), padding=(1, 1), groups=140, bias=False)
    (5): Conv2d(140, 192, kernel_size=(1, 1), stride=(1, 1))
    (6): ReLU(inplace=True)
    (7): MaxPool2d(kernel_size=2, stride=2, padding=0, dilation=1, ceil_mode=False)
    (8): Conv2d(192, 384, kernel_size=(3, 3), stride=(1, 1), padding=(1, 1))
    (9): ReLU(inplace=True)
    (10): Conv2d(384, 256, kernel_size=(3, 3), stride=(1, 1), padding=(1, 1))
    (11): ReLU(inplace=True)
    (12): Conv2d(256, 256, kernel_size=(3, 3), stride=(1, 1), padding=(1, 1))
    (13): ReLU(inplace=True)
    (14): MaxPool2d(kernel_size=2, stride=2, padding=0, dilation=1, ceil_mode=False)
  )
  (classifier): Sequential(
    (0): Dropout(p=0.5, inplace=False)
    (1): Linear(in_features=4096, out_features=4096, bias=True)
    (2): ReLU(inplace=True)
    (3): Dropout(p=0.5, inplace=False)
    (4): Linear(in_features=4096, out_features=1024, bias=True)
    (5): ReLU(inplace=True)
    (6): Linear(in_features=1024, out_features=10, bias=True)
  )
)

features.4.weight
Number of model parameters after: 23164982
Learning rate:  0.001
using : SGD (
Parameter Group 0
    dampening: 0
    lr: 0.001
    momentum: 0.1
    nesterov: False
    weight_decay: 0.0
)
Afer optim
Epoch:  300
Epoch: [300][0/391]	Time 0.576 (0.576)	Loss 0.0000 (0.0000)	Prec@1 100.000 (100.000)
Epoch: [300][10/391]	Time 0.022 (0.070)	Loss 0.0001 (0.0017)	Prec@1 100.000 (99.929)
…
