…
Namespace(augment=True, batch_size=128, cpu=False, data_set='cifar10', description='None', epochs=320, layer=3, lr=0.0025, model='AlexNet', momentum=0.1, name='exp1_kernel', nesterov=False, print_freq=10, rank=140, resume='./runs/exp1/checkpoint.pth.tar', seed=1, start_epoch=0, tensorboard=True, weight_decay=0.0)
Tensorboard:  True
Files already downloaded and verified
Number of model parameters before: 23238474
=> loading checkpoint './runs/exp1/checkpoint.pth.tar'
=> loaded checkpoint './runs/exp1/checkpoint.pth.tar' (epoch 300)

Before replacement: 
AlexNet(
  (features): Sequential(
    (0): Conv2d(3, 64, kernel_size=(3, 3), stride=(1, 1), padding=(2, 2))
    (1): ReLU(inplace=True)
    (2): MaxPool2d(kernel_size=2, stride=2, padding=0, dilation=1, ceil_mode=False)
    (3): Conv2d(64, 192, kernel_size=(3, 3), stride=(1, 1), padding=(1, 1))
    (4): ReLU(inplace=True)
    (5): MaxPool2d(kernel_size=2, stride=2, padding=0, dilation=1, ceil_mode=False)
    (6): Conv2d(192, 384, kernel_size=(3, 3), stride=(1, 1), padding=(1, 1))
    (7): ReLU(inplace=True)
    (8): Conv2d(384, 256, kernel_size=(3, 3), stride=(1, 1), padding=(1, 1))
    (9): ReLU(inplace=True)
    (10): Conv2d(256, 256, kernel_size=(3, 3), stride=(1, 1), padding=(1, 1))
    (11): ReLU(inplace=True)
    (12): MaxPool2d(kernel_size=2, stride=2, padding=0, dilation=1, ceil_mode=False)
  )
  (classifier): Sequential(
    (0): Dropout(p=0.5, inplace=False)
    (1): Linear(in_features=4096, out_features=4096, bias=True)
    (2): ReLU(inplace=True)
    (3): Dropout(p=0.5, inplace=False)
    (4): Linear(in_features=4096, out_features=1024, bias=True)
    (5): ReLU(inplace=True)
    (6): Linear(in_features=1024, out_features=10, bias=True)
  )
)

Epoch: [319][0/391]	Time 0.103 (0.103)	Loss 2.0276 (2.0276)	Prec@1 21.094 (21.094)
Epoch: [319][10/391]	Time 0.035 (0.041)	Loss 1.9568 (2.0112)	Prec@1 32.031 (23.438)
Epoch: [319][20/391]	Time 0.033 (0.038)	Loss 1.9908 (2.0177)	Prec@1 27.344 (23.289)
Epoch: [319][30/391]	Time 0.035 (0.037)	Loss 2.1473 (2.0276)	Prec@1 15.625 (23.362)
Epoch: [319][40/391]	Time 0.034 (0.036)	Loss 2.0051 (2.0187)	Prec@1 25.781 (23.914)
…
Test: [10/79]	Time 0.022 (0.026)	Loss 1.5032 (1.5808)	Prec@1 42.188 (44.105)
Test: [20/79]	Time 0.022 (0.025)	Loss 1.6167 (1.5647)	Prec@1 39.844 (44.122)
Test: [30/79]	Time 0.022 (0.024)	Loss 1.5142 (1.5578)	Prec@1 42.188 (43.901)
Test: [40/79]	Time 0.024 (0.024)	Loss 1.4663 (1.5625)	Prec@1 52.344 (44.112)
Test: [50/79]	Time 0.023 (0.024)	Loss 1.4092 (1.5514)	Prec@1 45.312 (44.087)
Test: [60/79]	Time 0.024 (0.024)	Loss 1.5864 (1.5498)	Prec@1 42.188 (44.160)
Test: [70/79]	Time 0.023 (0.024)	Loss 1.3470 (1.5517)	Prec@1 50.000 (44.190)
 * Prec@1 44.150
Best accuracy:  90.12
Best accuracy:  90.12

After replacement: 
AlexNet(
  (features): Sequential(
    (0): Conv2d(3, 64, kernel_size=(3, 3), stride=(1, 1), padding=(2, 2))
    (1): ReLU(inplace=True)
    (2): MaxPool2d(kernel_size=2, stride=2, padding=0, dilation=1, ceil_mode=False)
    (3): Conv2d(64, 140, kernel_size=(1, 1), stride=(1, 1), bias=False)
    (4): Conv2d(140, 140, kernel_size=(3, 3), stride=(1, 1), padding=(1, 1), groups=140, bias=False)
    (5): Conv2d(140, 192, kernel_size=(1, 1), stride=(1, 1))
    (6): ReLU(inplace=True)
    (7): MaxPool2d(kernel_size=2, stride=2, padding=0, dilation=1, ceil_mode=False)
    (8): Conv2d(192, 384, kernel_size=(3, 3), stride=(1, 1), padding=(1, 1))
    (9): ReLU(inplace=True)
    (10): Conv2d(384, 256, kernel_size=(3, 3), stride=(1, 1), padding=(1, 1))
    (11): ReLU(inplace=True)
    (12): Conv2d(256, 256, kernel_size=(3, 3), stride=(1, 1), padding=(1, 1))
    (13): ReLU(inplace=True)
    (14): MaxPool2d(kernel_size=2, stride=2, padding=0, dilation=1, ceil_mode=False)
  )
  (classifier): Sequential(
    (0): Dropout(p=0.5, inplace=False)
    (1): Linear(in_features=4096, out_features=4096, bias=True)
    (2): ReLU(inplace=True)
    (3): Dropout(p=0.5, inplace=False)
    (4): Linear(in_features=4096, out_features=1024, bias=True)
    (5): ReLU(inplace=True)
    (6): Linear(in_features=1024, out_features=10, bias=True)
  )
)

Number of model parameters after: 23164982
using : SGD (
Parameter Group 0
    dampening: 0
    lr: 0.0025
    momentum: 0.1
    nesterov: False
    weight_decay: 0.0
)
Afer optim
Epoch:  300
Epoch: [300][0/391]	Time 0.532 (0.532)	Loss 4.2600 (4.2600)	Prec@1 12.500 (12.500)
Epoch: [300][10/391]	Time 0.032 (0.072)	Loss 2.5572 (2.7659)	Prec@1 12.500 (14.062)
…
